model.pt (torch, 975144 bytes, 8 tensors)

weight f4 [256, 784]
000000 44 e6 7a 3c a3 93 93 bc d2 f8 f9 3c d8 60 8e 3c
       0.015313689 -0.018014735 0.030514155 0.017380163
000010 59 14 04 3d 08 e2 f0 bc 42 d8 e3 3c ed d5 4b bc
       0.032245968 -0.029404655 0.02781308 -0.012441141
000020 fb 8e ae 3d 73 33 e0 3d 27 51 8a 3d 59 24 05 3e
       0.08523365 0.10947313 0.0675376 0.13002147
000030 56 e9 cb 3d 21 da 5e 3d e1 96 3f be 84 55 df bd
       0.09956615 0.054407243 -0.187099 -0.10904983
000040 34 c9 8c be f3 17 b5 bd 23 b2 f8 bc 64 b5 47 3d
       -0.27497256 -0.088424586 -0.03035838 0.048756972
000050 a2 05 f9 3c 58 8b 14 3c 76 2a e3 3c 86 bd cb 3c
       0.030398194 0.009066425 0.027730208 0.024870645
000060 d4 57 57 3c 82 19 a9 3c be 30 b2 bc ea 3c a5 3c
       0.013143498 0.020642046 -0.021751758 0.020170648
000070 82 47 fb 3c f4 fb 08 3c 3e 02 d7 bc 2b cd 08 bd
       0.030673746 0.008360852 -0.026246186 -0.03339879
000080 aa f2 15 bc 98 23 4d 3c 83 cf e4 bc 25 01 ff bb
       -0.009152094 0.012520693 -0.02793098 -0.007782119
000090 e7 92 f3 bb 4b ab 4a bc a1 85 93 3e 11 93 2f 3e
       -0.0074332836 -0.012369941 0.28812888 0.17145945
0000a0 81 b3 82 3c e8 89 8e bd 13 4e 0b 3d 98 89 ce bc
       0.015954735 -0.06959897 0.034010004 -0.025212094
0000b0 3b 7c 7d be 0a 93 49 be 5f 07 a9 3d 72 95 42 bc
       -0.24754421 -0.19684997 0.08253359 -0.011876451
0000c0 65 fc b7 bd 17 80 98 bc c8 bf ea 3b 60 e6 ee 3a
       -0.08983687 -0.018615765 0.0071639754 0.0018226616
0000d0 cc fc 89 bc 00 a1 99 3a dc 66 96 bc b8 b7 e7 3b
       -0.016844176 0.0011720955 -0.018359594 0.0070714615
0000e0 98 c8 84 bb 52 8d 42 bc 80 e7 e3 b9 13 60 83 bc
       -0.004052233 -0.011874514 -0.00043469295 -0.016037023
0000f0 83 30 03 3d ed 76 df 3c 73 0c 0b 3d 05 8d 87 bc
       0.032028686 0.027278388 0.03394742 -0.016546736
000100 23 be fd 3c 5e 1d 41 3b 45 2c 33 3e 14 01 88 bb
       0.030974453 0.0029466967 0.17497356 -0.004150519
000110 24 c6 03 3e f4 b8 f6 3d 94 6a af 3d be cd 81 bd
       0.12868553 0.12046996 0.0856525 -0.0633807
000120 7a f1 d9 bc a6 fb 30 3c c6 02 e4 3d 8b 75 1e 3e
       -0.026604403 0.010802185 0.111333415 0.15474527
000130 40 d6 63 3d dd 27 fb 3d 87 e0 0c 3e 9f 64 00 3e
       0.055624247 0.12263463 0.13757525 0.12538384
000140 db 5f cd 3d 19 51 10 3d 26 b3 7a bc 38 ad e6 bb
       0.100280486 0.03523359 -0.015301501 -0.0070396923
000150 3a ea b6 bc a0 51 b1 3c 0e 12 a9 3c b6 99 28 3e
       -0.022328485 0.021645367 0.020638492 0.16464886
000160 98 8d d1 3c 30 60 ec bd 4e f4 1f be ed e8 bf 3d
       0.025580212 -0.11541784 -0.15620539 0.09370599
000170 12 84 65 bd 78 69 f3 3d 3e 5e e4 bc cb 80 ad bc
       -0.056034155 0.11885351 -0.02787697 -0.021179577
000180 14 59 a2 3d 45 d6 78 3d a6 dd 3d 3d 2b fe 2e 3e
       0.079271466 0.06075122 0.04635396 0.17089145
000190 f3 ff c6 3d 97 53 9d 3d 19 9f 8d 3d 2c 1c c7 3d
       0.09716787 0.07681959 0.06915111 0.0972217
0001a0 31 41 15 3c 68 a8 9a bb 88 69 fd bb 04 81 ee 3d
       0.009109781 -0.0047197826 -0.0077335276 0.116457015
0001b0 28 db 19 3e ad 29 aa 3d 46 56 d3 3c 50 b2 73 3c
       0.15025008 0.0830873 0.025797974 0.014874056
0001c0 c5 d8 89 bc 83 9c a3 bc e5 b2 9b 3c 0d b5 e5 3d
       -0.016826997 -0.019972092 0.019006202 0.11216173
0001d0 ec 10 ab bc 7b 81 24 be 92 fb 03 be cd 1b e2 bd
       -0.020882092 -0.16065018 -0.12888935 -0.11040459
0001e0 55 3f 18 bc d5 d6 c8 bd 6c aa 27 bd e3 24 6a ba
       -0.009292443 -0.09806601 -0.04093401 -0.0008931888
0001f0 78 43 50 3d 82 41 34 bd 90 3d c2 3c 3f fa 91 3d
       0.050845593 -0.044007786 0.023710996 0.07127809
000200 a5 c4 c4 3d f5 b0 91 3d b2 2f 19 3e 8f 40 26 3e
       0.096078195 0.0711383 0.149596 0.16235565
000210 7d e8 d5 3d ef bc 25 3e ad 99 d5 3d 8a 63 d6 3d
       0.10444734 0.16185354 0.10429702 0.10468204
000220 d0 9f 0e 3e 8d f3 74 3d b5 bc aa bc a5 aa ef bc
       0.13928151 0.05980258 -0.020841936 -0.029256174
000230 5a 9b c1 bc 27 7b 04 3d 8a 66 59 bc 54 48 63 bc
       -0.023633648 0.03234401 -0.013269076 -0.013872225
000240 fe 99 14 bd 05 f9 08 be 23 b2 06 be 28 d0 39 be
       -0.03627967 -0.13376243 -0.13153891 -0.18145812
000250 19 30 c7 bd 9c 6f 2a bc e0 a2 17 bd ea 7f 98 bd
       -0.09725971 -0.010402586 -0.037020564 -0.07446273
000260 f9 96 e9 bc ce 48 88 3d 9b 08 4f 3d 61 37 4d 3d
       -0.028514372 0.066545114 0.050545316 0.05010164
000270 66 65 51 3d b9 6e 0a 3e c2 b3 60 3c 59 72 94 3c
       0.05112209 0.135188 0.013714733 0.018120931
000280 05 af 95 3d 0c 90 df 3d 2d ae ea bc 3d 12 25 bd
       0.07308773 0.10916147 -0.028647507 -0.040300597
000290 80 81 cd 3b ce 20 3f 3d 3e 9e 04 bd 68 a6 66 38
       0.006271541 0.046662144 -0.032377474 5.499125e-05
0002a0 d2 02 2e bc 11 b4 62 bc f9 24 9b 3b 41 19 f9 bd
       -0.01062079 -0.0138368765 0.004734632 -0.1216302
0002b0 fc 47 0f be 82 56 d3 bc 7d 42 88 bd 6d a3 fd bc
       -0.13992304 -0.025798086 -0.06653307 -0.030961717
0002c0 cc f4 12 be 30 71 08 be 57 ea 83 bd 29 fe a7 bd
       -0.14351195 -0.13324428 -0.06441181 -0.08202774
0002d0 9b 79 9b bd 24 59 a0 3d 0c 27 80 3d 2a d3 e3 bc
       -0.07591554 0.07829502 0.062574476 -0.027810652
0002e0 24 df 09 3d 8e 2f c1 3c 6f 5d 25 bd 69 a3 0b be
       0.03366007 0.023582246 -0.04037231 -0.13636555
0002f0 15 36 33 be ad 17 98 bd 4d 0c 8b bd e2 00 0f be
       -0.175011 -0.07426391 -0.067894556 -0.1396518
000300 e4 c7 e1 bd e7 41 37 bd 57 31 29 bd 52 81 2a bc
       -0.11024454 -0.044740584 -0.04130682 -0.010406809
000310 18 d5 7f bc 49 b7 2a 3c 4e 21 90 bd ac 07 3b be
       -0.01561477 0.010419675 -0.07037602 -0.18264645
000320 57 bc 3f be 18 23 28 3d 8c 7d a9 bd ce fd 4e be
       -0.1872419 0.041049093 -0.08275899 -0.20214006
000330 86 ae fd bd 95 e1 d2 bd 43 67 bc bd 73 bf 06 3d
       -0.12386803 -0.102969326 -0.09199383 0.032897424
000340 9f 2a 0f bd 1e e6 72 bc aa 8a 3b 3c 2e 36 05 bd
       -0.034952756 -0.014825372 0.011446634 -0.032522373
000350 bf 00 8a bd 13 ed a6 bd 68 c4 6c be 58 e4 8e be
       -0.067384236 -0.08150687 -0.23121798 -0.27908587
000360 d1 4c 7a be 1e 38 77 be ae 4f 63 be 76 69 1b be
       -0.24443366 -0.24142501 -0.22198364 -0.15176949
000370 74 dd f6 bd ed 8a e6 bd 0f 04 6d bd 26 c8 a5 3c
       -0.120539576 -0.11256967 -0.0578652 0.02023704
000380 18 2a 25 3c d8 03 e0 bc a4 64 89 bd f5 8f 6f be
       0.010080837 -0.027345583 -0.06708649 -0.23394759
000390 ff 40 55 be 8c 9d 8b bd 52 40 0f be b7 70 10 be
       -0.20825575 -0.06817159 -0.1398938 -0.14105497
0003a0 36 9c 5a bd 6f 77 0e bd 5c ad 1e 3d b5 20 23 3d
       -0.05337163 -0.03478187 0.038739547 0.039826114
0003b0 b3 8a 88 3b 53 d3 9c bd a4 60 3d bc c6 f3 36 3c
       0.004166925 -0.076574944 -0.011558685 0.011166519
0003c0 30 f6 e5 bd bf 70 cf bd f5 1f 58 be 07 a7 88 be
       -0.11228597 -0.101289265 -0.2110594 -0.26689932
0003d0 75 60 a6 be 99 f4 81 be 40 c4 84 be 5d 0c 27 be
       -0.32495466 -0.25381926 -0.25930977 -0.1631331
0003e0 4d 4f a8 bd 3d 52 02 be b1 20 28 bd 6f b4 94 bd
       -0.082182504 -0.12726684 -0.041046802 -0.072609775
0003f0 cf 8a 9f 3c b9 6a 8e 3c 62 43 c5 bd b0 28 fd bd
       0.019475369 0.017384874 -0.09631993 -0.12361276

bias f4 [256]
000000 c5 75 a0 3d 02 66 c0 3c ad cb b5 3c 62 8b 0b 3d
       0.07834963 0.023486141 0.022191847 0.034068473
000010 38 9d 85 bd 8f e1 58 3d a1 3f 6c 3c 96 9b d7 3a
       -0.06524128 0.052949484 0.014419467 0.0016449566
000020 46 93 6f bd 41 3e ec 3c 91 21 a7 3b 17 44 96 bc
       -0.05849006 0.028838279 0.005100437 -0.018343015
000030 13 3e 8b 3d 2f 97 36 bd 4b cf 64 bd df 0a b4 bc
       0.06798949 -0.044577774 -0.055861752 -0.02197784
000040 56 60 10 bd 8a d8 79 bd 36 5d 21 bd 88 9b 59 bd
       -0.035248123 -0.060997523 -0.039395534 -0.05312684
000050 a3 09 8f bd 1d 8a 13 3c fa d4 8f bc 8d 9f 81 3c
       -0.0698426 0.009005097 -0.01755761 0.01582315
000060 25 5a 81 3d ca f3 85 bc 2d 09 41 3d ce 3b 4b bc
       0.06316022 -0.0163516 0.04712789 -0.012404395
000070 e9 ce 84 bd 31 aa 83 bd d5 e3 50 bd 83 84 f3 3c
       -0.064847775 -0.06428946 -0.050998528 0.029726272
000080 52 04 19 3d 84 ea 23 bd 5c b3 d9 3d f7 89 e0 3d
       0.037357636 -0.040018573 0.10629913 0.10963815
000090 33 35 61 bc 0c 56 fd 3c e2 12 4b bc 92 30 cf 3c
       -0.013745594 0.03092482 -0.012394639 0.025291715
0000a0 84 54 fd bc 15 59 0a bc b4 50 ba bc ef ac fa 3c
       -0.03092409 -0.00844409 -0.02274356 0.03060004
0000b0 ca 82 94 3d ad f2 c9 3d 59 16 8f bd 61 b0 29 bd
       0.072515085 0.0986074 -0.06986684 -0.041427974
0000c0 36 3b 55 3d 28 b1 23 bc 9b f7 a3 3c 52 8f 4c bd
       0.05205842 -0.009990968 0.020015528 -0.04994137
0000d0 07 d8 0b bd c1 58 89 bd 10 c2 43 3d ca 30 28 bd
       -0.034141567 -0.067063816 0.047792494 -0.041062154
0000e0 17 c1 46 bd 35 5c 53 3d 97 85 01 3b 1c 56 ee 3c
       -0.04852399 0.051601607 0.0019763464 0.029093795
0000f0 87 6f 7c bc 14 09 8f bc 16 fd 32 3b 79 e2 3f 3d
       -0.01540745 -0.017460383 0.0027311496 0.04684684
000100 ef 97 4c bd d1 f0 8d 3d 95 86 83 bd 28 e8 aa bb
       -0.049949583 0.06930698 -0.06422154 -0.0052156635
000110 de 76 d8 3c ba 37 07 bb 6a 61 a8 bd f4 64 b5 bb
       0.026423868 -0.002063258 -0.08221705 -0.005535716
000120 9e 0a 41 bb be a7 04 3d 6b 70 ca bd 70 c1 c0 bc
       -0.0029455791 0.032386534 -0.09884723 -0.023529738
000130 6a b2 53 bd e4 4f 64 bd 65 12 c6 3b 7c b9 8d 3c
       -0.05168382 -0.055740252 0.0060446733 0.01730036
000140 f4 2b 24 bc 33 93 f7 3c 42 04 bb 3d a4 9e ee bc
       -0.010020245 0.030221557 0.091316715 -0.02912838
000150 73 cb 88 bd 2e e5 82 bd 2f 2d 9f bc cc f7 a7 3c
       -0.0667943 -0.06391369 -0.019430725 0.020503901
000160 2e 4a 7c bd 63 c2 77 3d c4 61 0e 3d 83 a7 7a bd
       -0.06159418 0.060488116 0.034761205 -0.061194908
000170 25 fe f3 3c c5 e0 d2 3d 43 60 3c bd 12 b6 09 be
       0.029784271 0.10296778 -0.04599024 -0.1344836
000180 ea 5b 39 bd 3e 97 0f bd 8a 59 ad bc 1a 1d 87 3d
       -0.04525367 -0.035056345 -0.02116086 0.065973476
000190 68 1b ec bd 6d 64 d7 3d 9b 2a 28 3c d3 84 a9 3d
       -0.11528665 0.105172016 0.010264064 0.08277287
0001a0 01 9e 3e 3d 49 f9 bc 3d 4f c3 60 bd f7 45 5d 3c
       0.046537403 0.09227235 -0.05487376 0.01350545
0001b0 41 34 e6 3d 6d b8 8e bd 2a 63 30 3d e7 06 16 bc
       0.112404354 -0.0696877 0.04306332 -0.009156919
0001c0 42 37 22 bd 89 62 3f 3d d1 bd a6 3a 42 03 89 bd
       -0.03960348 0.04672483 0.0012721365 -0.066900745
0001d0 aa 0c 03 3d 72 b0 23 bd 90 21 09 3d ba 2b c5 3b
       0.0319945 -0.039963193 0.033479273 0.0060171755
0001e0 b3 7b c1 bd 1b 93 99 3c 04 33 98 bd 0d 5f bf 3b
       -0.09447422 0.018746903 -0.074316055 0.0058401884
0001f0 4c f4 56 bc 06 97 19 bd c0 40 5e bd 2d ab 53 bc
       -0.013119768 -0.037497543 -0.05426097 -0.012919229
000200 24 b3 70 3c fd f3 09 be 58 bf 58 bb 03 11 20 bc
       0.014691148 -0.1347198 -0.0033073034 -0.009769681
000210 2c 3a b6 bd 88 8e ba 3d 1d 9b 22 bc 43 84 f3 bc
       -0.08897814 0.09109217 -0.009924677 -0.029726153
000220 e8 40 09 bc bc c4 ee 3c 36 84 32 bc 0c 7a 5b bb
       -0.008377291 0.029146545 -0.010895779 -0.0033489494
000230 28 60 1a bc 7e ae 39 bb 76 85 43 bc 80 99 2b bd
       -0.0094223395 -0.0028332765 -0.011933675 -0.041894436
000240 70 26 15 3c 48 63 ae 3c 4b cc ed bc 1b 5a 95 3d
       0.0091034025 0.021287575 -0.029028079 0.07292577
000250 cf 49 6d 3b c5 55 56 bd 36 12 59 bc 71 18 44 3d
       0.0036207323 -0.05232789 -0.013248971 0.04787487
000260 81 bf 38 bd f5 39 96 3d 67 8e 04 3d c4 fe 3d 3d
       -0.045104507 0.07335273 0.032362368 0.04638554
000270 08 ea 87 b7 5c 7a 3c 3d 02 c8 f6 3b 92 10 38 3d
       -1.6202233e-05 0.04601513 0.007531167 0.044937678
000280 5c 27 c0 3c 93 ea 89 bd 1d 6f 2c 3d 6e 56 23 bd
       0.023456268 -0.067341946 0.042098153 -0.039877348
000290 1f f3 dd 3c b8 ad 87 3c 3a da e0 ba c7 9c 9e 3c
       0.027093468 0.016562328 -0.001715488 0.019361867
0002a0 c3 44 2c bc b9 ad 6b 3c 1c 60 2c bd 56 94 33 3d
       -0.010514441 0.01438468 -0.042083845 0.043842636
0002b0 2d 30 e5 3b 96 d1 e3 3c 71 c4 2c bc 7f 78 a3 3c
       0.0069942684 0.0278099 -0.010544882 0.019954918
0002c0 b7 0f 3c bd f1 b6 b0 3c f1 7f 2b 3d 90 3e ef bd
       -0.045913424 0.021571608 0.04187006 -0.11681855
0002d0 15 69 63 3d 8c f8 3b 3d 7b 06 d2 3d 5f 05 e3 bc
       0.055520136 0.04589133 0.10255142 -0.027712522
0002e0 03 2e 58 3d 16 f1 88 bc fe 39 9f bc c1 3b b5 bc
       0.052778255 -0.016716521 -0.019436833 -0.02212322
0002f0 4b 98 a8 3d bf b1 92 bc df 53 91 bc c5 95 d9 3d
       0.082321726 -0.017907022 -0.017740188 0.106242694
000300 11 04 7c bd 6f a1 09 3d 9e 59 68 bd 9e 17 00 3d
       -0.061527316 0.03360122 -0.05672609 0.031272523
000310 25 4b 5f 3c b3 dc 39 3d 73 dd ff 3c c6 0c df bc
       0.013628756 0.04537649 0.031233525 -0.02722777
000320 9d 39 b3 3a 2d 58 2c bd 08 7c 98 bb b1 97 0c bd
       0.0013673786 -0.04207628 -0.0046534576 -0.03432435
000330 5d eb da bc 11 c7 d1 bc da aa 0b 3d e1 fb 8d 3d
       -0.026723558 -0.025607618 0.034098484 0.06932808
000340 da 74 48 bd 50 b3 a8 bd 4c f9 23 3d de 8d 67 3d
       -0.048939563 -0.08237326 0.04003267 0.05653178
000350 30 1c 1f 3d c9 4d 96 3b 47 0e 6c bc e7 72 aa bc
       0.03884524 0.0045869094 -0.014407701 -0.020806743
000360 fd 26 14 bc b2 12 2f bc cc 8b d5 bc 74 44 9f 3c
       -0.009042499 -0.01068561 -0.026067637 0.01944182
000370 7e e3 bd 3c de 9e 86 bd 84 6d a4 bd 2d a1 4c 3d
       0.023179766 -0.0657327 -0.08028701 0.049958397
000380 8c 96 ad bb 63 48 7d 3d 86 81 de 3c 97 7d 76 3c
       -0.0052974876 0.06183661 0.027161371 0.015044591
000390 07 85 cc 3c 85 30 50 bc ba 52 9b 3c 98 c5 f4 3d
       0.024965776 -0.01270688 0.018960346 0.119517505
0003a0 46 fd 56 3d 12 0a 52 3d 04 b7 73 3c 04 54 10 3c
       0.052487634 0.051279135 0.014875177 0.008809093
0003b0 3c 1b d2 bd b8 ac 59 bc a1 57 0a bb 35 cf d6 3c
       -0.10259101 -0.013285808 -0.002110936 0.02622185
0003c0 33 3e 6e 3d 68 c4 19 3c 4a 00 44 3d 32 5e c9 bd
       0.058164787 0.009385206 0.04785184 -0.098324195
0003d0 2b 82 33 3c 36 46 01 3c 72 46 8b bd 17 31 fd bc
       0.010956327 0.007890275 -0.06800546 -0.030907197
0003e0 d7 c2 79 3c 31 63 92 bc 4b 45 10 bb 91 13 ca bd
       0.015244207 -0.017869564 -0.0022013958 -0.09867013
0003f0 64 00 c7 3d 16 1f 1a bd 64 54 6f bc ef d5 1d bd
       0.097168714 -0.037627302 -0.014607523 -0.0385341

weight f4 [128, 256]
000000 db af 98 bd 97 2c 34 bd 9c 3e 5b 3d 6b 24 55 be
       -0.07455417 -0.043987837 0.053526506 -0.20814674
000010 f4 5a 10 be 66 c9 f5 bd c6 c8 ed bd 41 02 1a 3c
       -0.14097196 -0.12001304 -0.1161056 0.009399951
000020 46 70 ac 3d 68 05 a6 3c 68 06 35 be e7 34 0a bd
       0.08419852 0.02026625 -0.17678225 -0.033741858
000030 1c d7 b0 3d 4b 1b e7 bd 58 2d b3 3c b7 d9 dc 3d
       0.08634779 -0.112845026 0.021872208 0.10783713
000040 f1 50 44 be a4 cf ad 3c 2e 60 cf bc 57 30 68 be
       -0.19171502 0.021217175 -0.025314417 -0.2267469
000050 8e 09 ed bd d5 61 c2 3d 22 24 5b bc 92 29 37 bd
       -0.11574088 0.09491316 -0.013375314 -0.04471738
000060 d7 51 4b 3e 2f b5 18 3e 5e 32 6f be 05 a8 0d 3d
       0.19855438 0.14912866 -0.23359057 0.034584064
000070 ec 7d 97 3d bc 74 f3 3c 47 2c 48 3d 59 71 b0 bd
       0.073970646 0.02971875 0.04887035 -0.08615369
000080 f6 e4 83 bc e5 f4 89 bd a8 7f 53 be ce 4b eb bd
       -0.016100388 -0.06736163 -0.20654166 -0.11489068
000090 9d 1e 8a bd 95 fe 9a 3d 68 0f 54 be 11 8e 8d bc
       -0.0674412 0.07568089 -0.20709002 -0.017279657
0000a0 03 2f ca 3b 6b 9e 2c 3c 41 75 5c bd bb 73 11 be
       0.006170155 0.010535817 -0.05382276 -0.14204304
0000b0 dc 50 81 bd 6c 3c ca bd b0 08 d2 39 04 87 3e bd
       -0.06314251 -0.09874806 0.00040060794 -0.04651548
0000c0 12 bb c1 bd 39 fd 58 bd f8 e7 d1 bc 97 44 a5 3e
       -0.09459509 -0.052975867 -0.025623307 0.32278892
0000d0 53 b7 d2 3c dc 27 eb 3b fe 5b 06 be 5a b2 0f bd
       0.025722181 0.0071763825 -0.1312103 -0.0350822
0000e0 08 6a 54 3d 7d 50 38 be cf 52 88 bd e6 68 53 bd
       0.05185893 -0.17999454 -0.066564195 -0.05161371
0000f0 69 3c 6a bc dc 75 4e bd 76 73 7c bd 5e 3d 28 be
       -0.0142966295 -0.05040537 -0.06163355 -0.1642966
000100 00 6e 17 3d 76 82 d4 bc 9a af fc bc b8 00 13 3d
       0.03697014 -0.025941115 -0.030845452 0.035889357
000110 a4 66 bb bc b3 9a 8d bd ed 33 11 3e 61 a9 18 bd
       -0.022876091 -0.06914272 0.14179964 -0.037270907
000120 e3 d0 da bd d8 fa 4f bd db c6 e4 3d f4 d2 81 3d
       -0.10684373 -0.050776333 0.11170741 0.06339064
000130 08 3d d6 bd 5c c4 6c 3d a1 5b 1c 3c fd 20 aa bd
       -0.104608595 0.05780445 0.00954333 -0.08307073
000140 c6 cc 5b be 5b c7 7a 3b 62 cd c9 bd 18 db ba bd
       -0.21464834 0.0038265798 -0.09853627 -0.0912382
000150 1e e8 be bc c4 b7 d2 bb 2c 59 e7 3b 1d dd 2a be
       -0.023304041 -0.006430598 0.0070601907 -0.1668591
000160 0c 11 9c bd 4b a5 00 3e 3f 3b 21 3d 8e 1a cc 3b
       -0.07620439 0.12563054 0.039363142 0.0062287515
000170 9e d3 8a 3d ed 38 bc bd ee 21 b6 3d 11 87 eb 3c
       0.06778644 -0.09190545 0.0889319 0.028750928
000180 f2 ae 08 3d 20 19 de bc 4f 17 0d be 40 f3 fd bc
       0.033369966 -0.02711159 -0.13778423 -0.03099978
000190 f6 a7 4f be 6a b6 88 3d 28 63 01 be 16 f5 11 bd
       -0.20278916 0.06675418 -0.12635481 -0.035634123
0001a0 e2 60 39 be 69 d6 86 be 8e b3 6f 3d 38 ba 18 bc
       -0.18103364 -0.26335457 0.058520846 -0.009321742
0001b0 7e b4 87 bd 12 62 81 3d 7c ea e0 bd 6a f2 68 3d
       -0.06626223 0.063175336 -0.10982224 0.05687181
0001c0 d6 ad 64 3d c6 a2 9e bd 85 eb 99 bc f5 e4 22 bd
       0.055829845 -0.0774589 -0.018789062 -0.03976913
0001d0 f8 cc 50 3c f7 bb b5 3d c5 99 6c bc 82 47 74 3d
       0.012744181 0.08873742 -0.014440958 0.059638508
0001e0 af 3d a2 bc be eb 88 3d 93 5b 0a ba b5 00 bb 3a
       -0.019804804 0.06685589 -0.0005277928 0.0014267178
0001f0 d1 fc 9e bc 66 56 27 3c 7f 6d a3 3c 08 ad 93 3c
       -0.019407662 0.01021347 0.019949673 0.018026844
000200 e4 09 05 3d 64 03 a4 bd 28 5d 73 3d 01 36 22 3d
       0.032480136 -0.08008459 0.059415013 0.039602283
000210 56 5b 73 be e0 65 37 bd d2 95 1d 3e 7b b7 ce 3c
       -0.2376531 -0.04477489 0.15389183 0.025233975
000220 25 70 d0 3d 7f 58 a9 bd be 35 0e be 46 7e 40 3d
       0.1017764 -0.082688324 -0.13887689 0.046995424
000230 5a 26 72 3d c9 db 4a be 99 5b 0b bb 81 82 b3 bc
       0.059118606 -0.19810404 -0.0021264313 -0.021912815
000240 61 15 b7 3d 08 fe 31 bd 5c bf 0d 3d c3 4e 82 3c
       0.089396246 -0.043455154 0.034606323 0.015906697
000250 1a d7 d6 bd 66 0b 1a be 94 42 4d bd 9d 11 91 3c
       -0.10490246 -0.1504341 -0.050112322 0.017708594
000260 0d ca 82 bd 59 bb cd bc 00 ed f3 bd bb bf 03 bb
       -0.063861944 -0.025113748 -0.119104385 -0.0020103294
000270 34 89 05 3c 4f 7c 81 bc 48 9a 93 3c 16 6c b7 3d
       0.008150388 -0.015806345 0.018017903 0.08956163
000280 81 3f 28 be 62 10 35 3e 7a f6 10 3e 09 56 33 3d
       -0.16430475 0.17682031 0.14156523 0.04378322
000290 41 7f 25 3e 84 c4 22 be 46 b7 92 be 7c ee bd bd
       0.16161825 -0.15895277 -0.28655452 -0.09274003
0002a0 53 2c 7f bc 3e 42 94 bd ed 29 9c be 35 ac cb bc
       -0.015574533 -0.07239197 -0.30500737 -0.024862388
0002b0 e5 4e ef bd 8d 9d ed bc 66 b7 96 3c 32 bd 08 3e
       -0.1168497 -0.02900579 0.018397998 0.13353422
0002c0 c3 1e cf 3d 07 0c 29 bd fe cf df 3b 0f b8 f3 bd
       0.10113289 -0.041271236 0.0068302145 -0.11900341
0002d0 76 e2 37 be 80 44 9e bd 96 a1 13 be a5 bb 2d bd
       -0.17957482 -0.07727909 -0.14417109 -0.04241528
0002e0 5c 50 60 3c 14 9a 14 3d 36 cb 17 bc 7f 82 9c 3d
       0.013691034 0.036279753 -0.009264758 0.07642078
0002f0 88 c0 24 be b8 ea df 3d 1f 45 8d 3d e6 9c 49 3d
       -0.1608907 0.10933441 0.068979494 0.049221896
000300 a4 42 4b be ca 02 f0 bd 2f b9 a5 bc 13 32 65 bd
       -0.1984964 -0.11719282 -0.020229904 -0.055955958
000310 43 b9 df bd 4d b1 33 be 58 20 b3 3c f4 1f 12 3e
       -0.10924008 -0.17548104 0.021866009 0.14270002
000320 5c 75 b2 bd 07 f7 1a 3e 3d 5d 4b 3e 7e 07 46 3d
       -0.08713791 0.15133296 0.19859786 0.04834699
000330 d7 e5 48 be 22 41 39 bc 10 4a a9 3c e6 73 d9 bd
       -0.19618927 -0.011307033 0.020665199 -0.10617809
000340 37 76 a0 bc ac 6e 88 3d f1 17 48 be 42 95 18 3d
       -0.01958762 0.06661734 -0.19540383 0.03725172
000350 4a 3a c6 bd 98 ce ce 3d 66 1e 30 39 e2 86 e3 3d
       -0.096790865 0.100979984 0.00016795992 0.11109711
000360 b1 a0 80 3d 4d f6 77 3c 06 ab d5 3d a9 e9 85 bd
       0.062806495 0.015134406 0.10433011 -0.06538708
000370 3e ab 51 bd 9d d3 47 3c 0f f3 81 3d 5a 63 62 bd
       -0.0511887 0.012196449 0.06345188 -0.05527053
000380 be 07 7e be a4 f7 be 3d 84 c3 3b 3c 59 6b 62 3d
       -0.24807641 0.093245775 0.011460189 0.055278156
000390 e0 d7 f1 bc 16 2d 0a bd b4 02 a2 bc 75 e6 d2 bd
       -0.029521883 -0.033734404 -0.01977668 -0.102978624
0003a0 0c 22 ac bd fc 0b b8 3d e1 1e 85 bc 4a 27 fe ba
       -0.084049314 0.08986661 -0.016250076 -0.0019390371
0003b0 c6 7f 7e 3d e9 e7 58 bd 6d 6a 74 bb 46 63 6c bd
       0.062133573 -0.05295554 -0.003729488 -0.057711862
0003c0 ab fe 95 bd 3e 30 e4 bd 78 3a c2 bd 13 01 6c 3d
       -0.07323965 -0.11142014 -0.09483808 0.057618212
0003d0 f9 ab a9 3d 71 d1 98 be 3a 9e 30 3d 75 a8 04 3d
       0.08284754 -0.2984729 0.043119647 0.032387216
0003e0 a1 bc c6 bd fe 88 a3 3d f9 91 77 3d e4 f6 1b be
       -0.09703947 0.079851136 0.060441945 -0.152309
0003f0 6b b6 02 bd e8 0f b9 bd 8f a3 0b 3e ca 9a bc bd
       -0.03191225 -0.09036237 0.13636611 -0.09209211

bias f4 [128]
000000 dc 7e 37 3e a4 a8 83 bd 10 9c 40 be 4b d6 81 bd
       0.17919487 -0.0642865 -0.18809533 -0.06339701
000010 7a 8b 3a bd aa f4 a0 3d f5 1e 39 3e f7 90 16 3e
       -0.04554317 0.07859166 0.18078215 0.14703737
000020 e1 b8 36 bd 8c 9b 22 3d 76 27 27 3e a1 8b 5c bd
       -0.044609908 0.039699122 0.16323647 -0.053844098
000030 32 68 3c 3c 93 02 21 bd cc cf 32 bd f8 48 64 3d
       0.0114994515 -0.039309096 -0.0436552 0.05573365
000040 17 b1 f5 3d 59 d3 4d 3d 9f ca 49 3b e5 ac 19 3e
       0.11996668 0.050250385 0.0030790938 0.1500736
000050 fe 18 aa 3d 49 33 7f bd ce 32 fd 3d 1b 85 26 3e
       0.08305548 -0.06230477 0.12363206 0.16261713
000060 c7 1f f1 3c 6d dc 05 3d 8e 99 1a 3e eb 33 af 3d
       0.029434098 0.032680918 0.15097639 0.085548244
000070 19 1c 95 bc df d5 14 bd e5 9a 7f 3d 9a 69 e8 3d
       -0.018201875 -0.036336776 0.06240358 0.11348267
000080 d3 67 7c bc 2d 18 79 bd e1 df f7 bd 42 b1 5b bd
       -0.015405613 -0.06081407 -0.121032484 -0.053635843
000090 8c a0 c9 3c 07 fc 31 3e 51 80 c7 3d 30 62 44 3c
       0.024612688 0.17381297 0.09741271 0.0119863
0000a0 fa 98 d9 bd 89 de fe 3c c9 75 6a bd ea 09 11 3e
       -0.10624881 0.031111972 -0.057241235 0.14163938
0000b0 3e b6 b2 3d e8 6e 43 3d 18 c9 d6 3d 0b 22 61 3c
       0.08726166 0.04771319 0.10487574 0.013741027
0000c0 99 1a 69 bd d8 d7 a6 3d 4f d3 41 3d c6 db 32 bd
       -0.05691013 0.08146638 0.04732066 -0.043666624
0000d0 a8 2e 66 3e 52 f7 16 bd 8b 3d 36 3c 95 30 cb 3c
       0.22478735 -0.036856957 0.011123071 0.02480344
0000e0 f4 3d 73 bb e0 5e ae 3d 42 cf cf 3d 6f 44 b5 3c
       -0.0037115784 0.0851419 0.10146953 0.022127358
0000f0 b9 58 87 bd bd 3b 01 3d d3 dc 7d 3d 27 b3 a2 3d
       -0.066087194 0.03155111 0.061978173 0.07944327
000100 9b 55 f4 3d 36 2a de 3d c4 65 48 bb a9 f8 a3 bd
       0.119303904 0.10847895 -0.0030578235 -0.080064125
000110 59 b1 aa 3d f9 d5 71 ba df 94 e5 3d a7 5e 0c 3e
       0.08334608 -0.0009225305 0.112100355 0.13707982
000120 63 ca 99 3d 46 db db bd 32 0a 72 3c 0e 4a dd 3d
       0.07509305 -0.107351825 0.014772939 0.108051404
000130 06 bb 15 bd 93 f2 97 bd 16 62 6d 3d 91 70 49 3d
       -0.036555313 -0.07419314 0.05795487 0.049179617
000140 b3 c5 e2 bd 38 09 cc 3d e8 a7 41 3e e6 02 bf bd
       -0.110728644 0.09962696 0.18911707 -0.09326725
000150 e3 77 83 bd 37 12 a9 bd 06 9e c3 bd 74 12 47 bc
       -0.06419351 -0.08255427 -0.09551625 -0.012150396
000160 c9 73 ba 3d 9c 00 1a 3e 27 fd 5c 3d a3 d0 e0 3d
       0.091041155 0.15039295 0.053952362 0.10977294
000170 a5 01 18 3d da ef 54 3d 25 ba c7 bc f7 58 21 3e
       0.037110943 0.051986553 -0.024380753 0.15756594
000180 45 d1 06 3e da 32 d3 bc f3 cc d2 3d 18 17 17 3d
       0.13165767 -0.025781084 0.10292997 0.03688726
000190 e9 e3 4a bd 4b e1 c0 3d 70 8b 5a bd ae 86 e4 bb
       -0.04953376 0.09417971 -0.053355634 -0.006974063
0001a0 ab d7 1d 3d 1f e2 37 3d 06 b5 a1 bc 09 14 d7 3d
       0.038535755 0.04489338 -0.019739639 0.10501868
0001b0 83 88 76 bd 09 28 d6 3d b0 bf 78 3d 72 67 2d 3c
       -0.06018878 0.10456855 0.060729682 0.010583745
0001c0 72 01 92 bd 7c b2 f7 bd b0 a7 69 3b 4f ba 47 3e
       -0.07129182 -0.1209459 0.0035652928 0.19504665
0001d0 ec 7b 92 3d 84 56 e7 bd 1f 77 65 3c 53 8a 38 3e
       0.071525425 -0.112957984 0.014005451 0.18021517
0001e0 f7 5b 0c 3e b3 79 73 bd 31 3e 1e 3e a1 f7 d2 3d
       0.13706957 -0.059442233 0.15453412 0.10301138
0001f0 16 62 de 3d 4d b2 4c 3d bd 29 3a 3d 93 8a 3f 3e
       0.10858552 0.04997473 0.04544996 0.18705206

weight f4 [64, 128]
000000 09 5c 31 be 93 3b 82 3d 3a 78 68 3d 04 b3 74 bd
       -0.17320265 0.06359019 0.056755282 -0.059741035
000010 89 5b d9 bd dc cf 6a be cc 21 ff 3c d7 78 eb 3c
       -0.10613162 -0.22930855 0.031144045 0.028744144
000020 a6 52 45 3d c2 1d 0e be f2 b9 5c bd 88 00 11 3d
       0.048174523 -0.13878539 -0.05388827 0.035400897
000030 10 2b d5 bd f2 ae cd bd e6 6c 76 bd ac 44 8f bd
       -0.10408604 -0.10043134 -0.060162447 -0.0699552
000040 87 c3 ae bd 25 b8 19 3b 14 3a 95 3d 09 8a 07 bb
       -0.08533388 0.0023455706 0.07286468 -0.002068164
000050 0c ea fe 3d 27 7d 3c bd 9a 4e 86 be 5e 8f 40 3d
       0.12446985 -0.046017792 -0.26231843 0.047011726
000060 63 cb 6b be 1e ec 25 3d 52 9b 3a 3d b0 8a 98 3d
       -0.23026805 0.040508382 0.04555828 0.074483275
000070 cd 46 39 bd ce 0b 93 be 61 45 18 bc 7b 1a 72 bd
       -0.045233537 -0.28719944 -0.009293885 -0.059107285
000080 84 be bd 3d fd fc 4e 3d 5e 73 5b 3d 4a bb bf bd
       0.092648536 0.050534237 0.05357682 -0.093618944
000090 ed 35 a2 bb fc 6e 9d bd 3f b9 78 3c 6e a5 c3 3d
       -0.004950276 -0.07687184 0.015180885 0.095530376
0000a0 03 26 76 bd d2 34 3a 3e 66 cd 78 3d 8c 99 60 bc
       -0.060094845 0.18184212 0.06074276 -0.013708483
0000b0 ba 3c e6 bd f9 d1 72 3d 4f 26 ff bb 24 9c bd 3d
       -0.112420514 0.059282277 -0.007786549 0.09258297
0000c0 60 0c a1 3b 34 a9 14 3d 33 51 0d 3e 6c af 47 3e
       0.0049148053 0.036294177 0.13800506 0.19500512
0000d0 b4 54 f9 3c 51 00 fc bd 63 c9 01 be c2 fa e7 bd
       0.030435897 -0.12304748 -0.12674479 -0.11327125
0000e0 9f 9a ba 3b 9a 2c 3c 3c f3 df 41 3d 9d 1a 23 be
       0.005694702 0.011485243 0.047332715 -0.15928121
0000f0 29 53 98 3d a2 51 09 bd 08 92 df bc 39 4c be 3d
       0.074377365 -0.033525117 -0.027291313 0.09291882
000100 e0 f4 b3 bd dd 0a 04 3e 00 1d c3 3c c5 68 9c 3d
       -0.087869406 0.12894769 0.02381754 0.07637171
000110 9c 60 5c bb b8 00 76 3c 6f 72 81 3d 17 f2 47 be
       -0.003362692 0.01501482 0.063206546 -0.19525944
000120 67 b5 db bd 71 33 3f 3d b0 af d6 3d 55 be f7 3c
       -0.10727959 0.046679918 0.104827285 0.030242125
000130 09 05 0d 3d 9a 98 8e be 2a 80 fa 3d 7f 78 97 bd
       0.03442863 -0.278508 0.122314766 -0.0739603
000140 20 2c 0f 3e 7d ad 5e bd 52 3a a1 bb d9 4c b9 3c
       0.13981676 -0.05436467 -0.0049202824 0.022619652
000150 7a 61 0b 3e 06 c2 34 bd 58 ec cc 3d 33 9a 8d 3d
       0.13611403 -0.044130348 0.100060165 0.06914177
000160 7d 16 1a bd 10 45 13 bc 68 d5 df 3d 42 f3 1d 3d
       -0.037619103 -0.008988634 0.10929376 0.038562067
000170 20 4d 95 bd 39 5f 2f be 8f 72 8b 3b c0 62 58 bd
       -0.07290101 -0.17126168 0.0042556 -0.05282855
000180 be 13 1f be 7a 11 bc 3c 4b 84 df bd 80 84 5c bd
       -0.15534875 0.022957552 -0.10913905 -0.0538373
000190 be 7d e1 3d 2f 10 50 3d 77 50 c1 bb 35 b6 b1 3c
       0.110103115 0.050796684 -0.0058994847 0.021693328
0001a0 53 c4 33 be 8e 76 91 be 06 ec 5b bc 59 21 4e bd
       -0.1755536 -0.28410763 -0.013422972 -0.05032477
0001b0 09 44 30 be ed f0 4b 3d 43 43 0e be 30 56 4b bd
       -0.17213453 0.04979031 -0.13892846 -0.04964274
0001c0 17 f6 54 3e c5 a1 20 3e 44 3e 9c be d4 f1 8d bc
       0.20797001 0.1568671 -0.30516255 -0.017327227
0001d0 5e a9 fe bc 45 03 7c bd 67 ae 88 3d 18 60 9e 3d
       -0.03108662 -0.061526556 0.066738896 0.07733172
0001e0 1a 2b 60 be e1 ff 2c 3e aa d2 53 3d 94 35 09 3e
       -0.21891442 0.16894485 0.051714577 0.13399345
0001f0 e3 2c a3 3d cb e6 9c bd cc 0f 00 3e 82 ca ba 3d
       0.07967546 -0.07661208 0.12506026 0.091206565
000200 c5 29 da 3d 11 90 e4 bd ce 0a 64 3d c1 37 20 be
       0.10652498 -0.11160291 0.055674367 -0.15646268
000210 fe 21 1d 3e 48 b9 16 3d cf bc 90 3d ee 75 7f bc
       0.15344998 0.03679779 0.070672624 -0.0155920815
000220 8f 73 3b be f5 a8 64 bd a9 ec b7 3d 2a fc 75 bd
       -0.18305801 -0.055825192 0.08980686 -0.060054936
000230 24 d4 31 3e 1f d9 21 3e 34 86 0c 3d 02 87 b6 bd
       0.17366081 0.15805481 0.034307674 -0.089124694
000240 0e 59 25 3d 0b 35 0f bd 6b 41 5b bd 20 fa c2 bc
       0.040368132 -0.034962695 -0.053529184 -0.02380091
000250 43 2d 7a 3d 1c c5 40 bd 01 03 93 3c 09 40 aa 3d
       0.06107832 -0.04706298 0.017945768 0.08312995
000260 a8 e7 47 3e 09 10 1b bd 68 1f 4b 3c 68 f0 83 3d
       0.19521964 -0.03785709 0.012397625 0.06442338
000270 92 b1 76 bc c4 6d c4 bd ad bd db 3d 6c 51 e6 3d
       -0.0150569845 -0.09591249 0.10729537 0.11245999
000280 d4 40 90 3d 04 28 c0 3d 11 97 55 be 72 88 83 bc
       0.07043615 0.093826324 -0.20858409 -0.016056273
000290 aa 55 0d be 70 bb 79 3d 64 70 fa 3b 57 5f 3f be
       -0.1380221 0.06096977 0.0076427925 -0.18688713
0002a0 0d 03 73 be 03 c5 7b bd 7d 32 cb 3d eb 6c 9e 3d
       -0.23731633 -0.061467182 0.09921739 0.07735618
0002b0 a9 9e 8b 3d f8 8e 5a 3d da 1a 64 3d af f1 ed 3c
       0.068173714 0.053359002 0.05568967 0.029045908
0002c0 6e b8 1d bc 95 80 cf 3d 93 c2 11 3c 87 c8 8a bd
       -0.009626491 0.10131947 0.008896488 -0.06776529
0002d0 8d ce 95 3d 27 55 ad bc f5 5d 20 be 37 72 55 bc
       0.07314787 -0.021158768 -0.15660842 -0.013027719
0002e0 3c 6a 2d 3d a6 09 44 3d 93 8b 9d 3d b5 74 3b 3e
       0.04233764 0.047860764 0.07692637 0.18306239
0002f0 13 04 b8 bc 35 65 25 3e 81 3b 9d bd e9 0a e8 3b
       -0.02246288 0.16151889 -0.07677365 0.0070813787
000300 a8 9b 00 bd 7b 03 ce 3d a6 5f 4a 3d 68 0b b3 bc
       -0.031398445 0.100592576 0.049407624 -0.021856025
000310 1b dd d6 3d fe 1d 59 be 90 6e b4 bd 86 6b 3c 3d
       0.10491391 -0.21202847 -0.088101506 0.04600098
000320 a0 93 e5 3c 49 05 39 be 89 16 1d bd b1 44 8a bd
       0.028024495 -0.18068422 -0.03835157 -0.06751383
000330 b5 53 96 bd 57 86 99 3d 7c be 66 bd cb bc 83 bd
       -0.073401846 0.074963264 -0.056334004 -0.06432494
000340 81 14 3a bd 61 26 d0 bc 12 a1 1b bc f1 ef 98 3c
       -0.04542971 -0.025408925 -0.009498851 0.0186691
000350 65 f7 1e be 5e 17 8b bd 4b f8 43 be 02 a9 50 be
       -0.15524061 -0.06791566 -0.19137685 -0.20376971
000360 5f 15 9c bb d5 f3 b6 3d 44 34 2a bd 3a 64 6c 3e
       -0.00476329 0.08933226 -0.04155375 0.23085108
000370 2c c3 2a 3d 9b 06 2f 3e 7f 83 20 be 6a cf 2f 3e
       0.041690037 0.17092364 -0.15675162 0.17168966
000380 0b 05 fa 3d 31 08 68 3d 0e c1 0e 3e 1a 91 f2 3d
       0.12207993 0.056648437 0.13940832 0.11844082
000390 94 04 99 bd 3c ef d0 3c 46 70 b3 bd e2 9d 77 3b
       -0.07471576 0.0255047 -0.08761649 0.0037783314
0003a0 9b 38 f6 3c 5b c2 b6 3d b4 2d 02 be a7 ea ca bd
       0.030056288 0.08923789 -0.12712747 -0.09908038
0003b0 3a 2d 94 3d c8 fb 35 be 36 08 9e 3d 1a d8 49 3e
       0.07235189 -0.17771828 0.0771641 0.19711342
0003c0 96 67 aa b9 92 30 0a be b6 82 95 bd 93 23 c9 bd
       -0.00032502104 -0.1349509 -0.07300322 -0.09821238
0003d0 48 b5 bf 3c 1d 50 90 3d 42 ed a5 3d 22 3d 62 3d
       0.023401871 0.070465304 0.08101894 0.055234082
0003e0 19 b2 25 3e 94 35 df bc e5 18 a1 3c df ab d3 bd
       0.1618122 -0.027247228 0.019665191 -0.10335516
0003f0 ee 88 80 bd 30 41 83 bd 17 d5 5b be 1b d1 04 3a
       -0.06276117 -0.06408918 -0.21468006 0.00050665595

bias f4 [64]
000000 56 95 ad 3d 56 bd 2a 3e 72 15 a3 3d 82 b6 ce 3d
       0.08475749 0.16673788 0.07963075 0.10093404
000010 4a 59 1d 3e 21 97 3a 3e 08 e2 29 3e 01 55 60 3e
       0.15366092 0.18221714 0.1659013 0.21907426
000020 ba 16 50 3e a8 ed 18 3e a0 d8 32 3e 61 5c d0 3d
       0.2032117 0.14934409 0.17465448 0.1017387
000030 9f 90 79 3e e6 db 60 3e 82 c0 42 3d c6 49 0e 3d
       0.24371575 0.21958885 0.04754687 0.034738325
000040 42 7e f9 bd 39 7d d5 3d d1 6f 7b 3d db 42 82 bd
       -0.12182285 0.10424275 0.061385933 -0.06360408
000050 93 90 9a 3d 3a 6e fb 3d 07 f2 4a 3e 5a 21 0a 3e
       0.075471066 0.122768834 0.19818889 0.13489285
000060 59 b3 f1 3d 43 a9 c2 bb d5 1d 41 3e a5 ae a6 3d
       0.11801786 -0.0059405877 0.18859036 0.081387796
000070 37 b4 46 3d 60 3f c7 3d 6f ce 04 3e 07 38 79 3e
       0.04851171 0.09728885 0.12969373 0.24337779
000080 ee e3 9b 3d 17 d7 f3 3d 00 50 2d 3e 87 25 af 3d
       0.076118335 0.119062595 0.16925049 0.0855208
000090 ef 07 08 3e 29 54 59 3c ad d2 e1 3d 6a ae ff 3d
       0.13284276 0.013264694 0.11026511 0.12484439
0000a0 8b 13 db bd 44 4c 42 bd 6d 6e f4 3c 5a f8 f5 3d
       -0.10697087 -0.047436014 0.029837811 0.1201026
0000b0 3d f9 19 3d b9 49 be 3d b3 74 20 3e 13 d4 c4 ba
       0.037591208 0.09291405 0.15669517 -0.0015016816
0000c0 14 15 bb 3d 2b 14 be 3d 5f 20 85 3d 25 fb 7b 3d
       0.0913488 0.092811905 0.06500315 0.061518807
0000d0 85 ff 00 3e d9 79 97 3d b2 88 8f 3e f5 e6 e6 3d
       0.12597473 0.073962875 0.28033978 0.1127452
0000e0 5e 0a 35 bd 71 95 3c 3d df ad 73 3c c9 66 32 bd
       -0.04419934 0.046040956 0.014872997 -0.043555055
0000f0 11 61 1a 3e 98 8b 4a bc 20 4a ad 3c cb 13 39 3e
       0.1507609 -0.012362383 0.02115351 0.18073957

weight f4 [10, 64]
000000 b7 f6 2e 3e 6c a0 b5 bd f8 37 e3 3d 42 4b be 3d
       0.17086302 -0.08868489 0.110946596 0.09291698
000010 58 71 66 bc 3e f9 2e 3d de 97 47 be 0f 81 a4 bd
       -0.014065109 0.042718165 -0.19491526 -0.080324285
000020 89 54 07 be 65 50 eb 3d 79 d3 7e be 85 d1 83 bd
       -0.13215841 0.114899434 -0.24885358 -0.06436447
000030 aa 0c c7 be bb 40 71 be a5 0f 07 3e e7 d5 27 3e
       -0.3887685 -0.23559849 0.13189562 0.16390191
000040 79 b2 56 3e 71 96 24 be a3 50 0d be 04 3d 68 be
       0.2096652 -0.16073014 -0.13800292 -0.22679526
000050 66 4b 0f bd be a0 54 be 58 e1 29 be 30 74 be be
       -0.034984015 -0.20764443 -0.16589868 -0.3719802
000060 80 e9 76 bc e4 01 0f 3e 03 fb 59 3b 5c 12 1c 3e
       -0.015070319 0.13965565 0.0033261187 0.15241379
000070 7b a0 b7 be ac 74 2b be 88 c6 9a b7 1e 27 2b be
       -0.35864624 -0.16743726 -1.8450679e-05 -0.16714141
000080 46 9b 2d 3d 12 db ec 3c f0 9d 20 be 83 28 97 3d
       0.04238441 0.028913055 -0.15685248 0.07380774
000090 fd d5 53 be 94 68 51 be 94 16 1d be 1b 06 b5 be
       -0.20687099 -0.2045005 -0.15340644 -0.3535622
0000a0 3d 02 de 3d e5 05 cc 3d 06 e6 16 be 65 36 7a be
       0.10840271 0.09962062 -0.14736184 -0.24434812
0000b0 6c 54 60 be b1 68 0e be 27 00 92 bd 58 12 8e bd
       -0.21907204 -0.13907124 -0.07128935 -0.069370925
0000c0 9a 40 25 be f5 72 8c 3d 57 71 d1 3d 96 be 78 be
       -0.16137925 0.06857864 0.10226696 -0.24291453
0000d0 53 c4 30 be de d8 5f be 42 24 12 3d b5 da 1c be
       -0.17262392 -0.21860072 0.03567911 -0.15317805
0000e0 e9 ec f3 3d e4 25 f5 3d cd fb e7 3d 58 73 07 be
       0.119104214 0.11970118 0.11327324 -0.13227594
0000f0 9c 2a 71 be 77 f3 1c 3e bf e3 18 3e 52 37 81 bd
       -0.2355141 0.1532725 0.14930628 -0.0630938
000100 19 da b2 be 39 35 a0 3d 24 8a 92 be da 12 7a be
       -0.3493202 0.078226514 -0.28621018 -0.24421254
000110 8a bd 48 be c0 45 8a be ad c8 6f 3d 5e b5 8c bd
       -0.19603553 -0.2700634 0.05854099 -0.068705305
000120 df 3f 92 be 06 73 7e be 01 a7 c4 bc 5d 3f d5 3d
       -0.28564355 -0.24848565 -0.024005415 0.10412476
000130 3d 53 00 3e 37 6d 42 be a5 8a b8 3d 57 35 84 be
       0.12531753 -0.18986975 0.09010819 -0.25821945
000140 47 63 03 be 87 9e 3d be ea e0 80 bd 33 cf 2c 3e
       -0.1283084 -0.18517505 -0.06292899 0.16875915
000150 dd f2 49 be df 0a 0e 3e 3f 95 1d bc 70 f8 11 3e
       -0.19721551 0.13871334 -0.009618103 0.14254928
000160 83 19 eb 3d 24 0e 23 be 21 97 40 3d c1 28 2e 3e
       0.11479475 -0.15923363 0.047019128 0.17007734
000170 ba 35 3b 3e 06 7c 10 3e 1b 4b 4a be f7 d3 fc b9
       0.18282214 0.14109811 -0.19755213 -0.00048223112
000180 61 64 3f be 34 d8 f2 3d f0 66 c5 bd ff b3 1d 3d
       -0.18690635 0.11857644 -0.096387744 0.038501736
000190 a9 06 d5 bd 6b 46 96 3d b8 f8 29 be 98 7a 0e 3e
       -0.10401661 0.0733765 -0.16598785 0.13913953
0001a0 b1 cb 54 be 9e 64 ce 3d b8 81 38 be ba cd 3b 3e
       -0.20780827 0.10077785 -0.18018234 0.18340197
0001b0 c0 a3 d4 bd eb f4 ae 3d 96 09 36 be fb 0c 1a be
       -0.10382795 0.08542808 -0.17777094 -0.15044014
0001c0 35 0c a9 3d 32 9b 5a bc 34 5e 82 be ee 76 ba bd
       0.082542814 -0.0133426655 -0.25462496 -0.09104715
0001d0 83 ce 21 be f1 a1 7e 3e 03 b6 86 be 12 60 0f be
       -0.15801434 0.24866463 -0.2631074 -0.14001492
0001e0 b0 49 df be c9 18 72 be 4f 25 c4 be f6 36 2e be
       -0.43610907 -0.23642267 -0.38309714 -0.17013153
0001f0 7b 93 ce 3d 63 c9 9c bb 8b cf 65 be 75 c4 4f 3e
       0.100867234 -0.0047847494 -0.22442453 0.20289786
000200 97 07 29 be b7 ee 34 be c1 b7 69 be 52 ba 8d bd
       -0.16506802 -0.17669187 -0.22824003 -0.069203034
000210 71 39 11 be 9d a0 36 be 42 06 85 be ee 8f 8c 3d
       -0.14182068 -0.17834707 -0.25981337 0.0686339
000220 8b bf f0 bd 7d 81 d7 3d 52 f2 13 3e fc fd 1a be
       -0.11755284 0.10522745 0.14447907 -0.1513595
000230 7a c9 98 be e1 0b 45 3c d7 d3 dd 3d 9e 17 b5 3d
       -0.29841214 0.012026758 0.10831421 0.08842395
000240 50 53 81 bd e8 98 7b be cc 3c 82 3d 72 19 91 3d
       -0.06314719 -0.24570048 0.06359252 0.070849314
000250 e7 a7 43 be c0 e8 15 3e 37 f2 0f bb 9a d6 1d 3d
       -0.19107018 0.14639568 -0.002196444 0.038534738
000260 4e 58 36 3d 1d 8b 28 3e 11 65 92 be 05 b8 46 3d
       0.044517808 0.16459318 -0.28592733 0.04851534
000270 3a d2 ca bc 16 24 56 be 62 17 2f 3b 74 17 30 be
       -0.024758447 -0.20912203 0.0026716818 -0.17196447
000280 64 da 3c be 2a 25 2a be 3b 99 4c be 66 2c 80 3d
       -0.18442684 -0.1661574 -0.19980328 0.06258468
000290 82 76 5d 3d af c3 c1 3d b2 11 48 3d 43 28 13 3d
       0.054068096 0.09461152 0.048845 0.03592707
0002a0 e0 e0 84 3d 2e 6a 10 be 49 e6 05 be 07 80 0d 3e
       0.06488204 -0.14103004 -0.13076128 0.1381837
0002b0 fc 9d fe 3d 55 da df 3d 2c 4d ad bc 96 f9 b5 3d
       0.12432477 0.109303154 -0.021154962 0.08885495
0002c0 4d 74 e8 bd e8 b4 f3 3d ad 68 56 3d df 34 bc be
       -0.113503076 0.118997395 0.05234592 -0.36759087
0002d0 2e df 8a bd 41 cb 02 bd 1f c7 a2 3d fa 08 ed 3d
       -0.067808494 -0.03193212 0.079481356 0.11573978
0002e0 1f 1c 56 3d 76 4b 55 bd e4 4e 78 be 17 d7 46 3e
       0.052272912 -0.05207392 -0.24248844 0.19417988
0002f0 94 4f c5 3c 38 42 bd 3d 06 b1 dc 3d 28 2f 3b be
       0.024085797 0.09241146 0.10775952 -0.18279707
000300 f3 59 f2 be 70 6b 6c be ca d4 0c be 8b 6a 59 bd
       -0.4733425 -0.23087859 -0.13753048 -0.053080123
000310 ef 8e 02 3e 92 51 38 be 63 96 35 3e 85 7d 87 bd
       0.12749837 -0.17999867 0.17733149 -0.06615738
000320 0f 63 c9 3d d4 15 29 be ca ae b0 3d 1c 8a eb 3d
       0.09833347 -0.16512233 0.08627088 0.11500952
000330 27 58 b7 3d 95 ed 8b 3c 05 4a 04 be 27 9d bb 3d
       0.089523606 0.017081061 -0.12918861 0.09160834
000340 48 54 22 bd 7c 8e 64 be 0f 46 4c bc b8 27 0e be
       -0.039631158 -0.22319978 -0.012467875 -0.13882339
000350 39 9c d0 3d 01 91 fd 3d 59 66 f4 3d 49 f2 a0 3d
       0.10186047 0.12381173 0.11933584 0.07858712
000360 27 86 91 3d 19 68 4c bd 38 d7 01 3d 08 35 32 be
       0.07105666 -0.049903963 0.03169939 -0.17403042
000370 83 6b 40 be 8c 7b 3e bd 25 32 6f bc 73 51 25 be
       -0.18791012 -0.046504542 -0.014599358 -0.16144352
000380 51 84 03 be bb 76 64 bc 05 2d b6 3d 2e e4 88 3d
       -0.12843443 -0.013944323 0.088953055 0.06684147
000390 b5 e5 9a bd 05 47 00 3e 13 5a 96 3d d8 03 87 be
       -0.075633444 0.12527092 0.07341399 -0.2637012
0003a0 8e e0 85 3d 53 db 04 3e 33 f5 1c 3e 08 45 06 be
       0.06536971 0.1297429 0.15327911 -0.13112271
0003b0 99 a8 1c 3e 8d 40 ae bd 56 c6 5f 3d 39 75 03 3e
       0.1529869 -0.08508406 0.054632507 0.12837686
0003c0 13 72 a3 bd 01 42 62 be b9 de 83 3d 4c 1c 58 bb
       -0.07980742 -0.22095491 0.06438965 -0.003297585
0003d0 b7 e9 f2 3d 11 8c 05 be b2 71 34 be 65 2f 48 be
       0.11860984 -0.13041712 -0.17621496 -0.1954933
0003e0 8d 8a 0d be 55 cd 26 be 85 52 44 be bf 40 b5 bd
       -0.13822384 -0.16289265 -0.19172104 -0.0885024
0003f0 66 63 bd bd f1 bc c8 3d 7f 5a 2c bc 1e 2c 04 be
       -0.09247474 0.09801663 -0.010519623 -0.12907454

bias f4 [10]
000000 9f 43 1d be 4c 94 03 bc 42 8b b9 bd 0e 3f 8a 3d
       -0.15357827 -0.008030962 -0.090597644 0.06750308
000010 1c 26 6e 3e 7e a4 83 3d c2 d6 3a bd 29 08 70 bb
       0.23256725 0.06427859 -0.045614965 -0.0036625958
000020 6b 79 81 3e cf 3c de bd
       0.25287947 -0.10851442
